trained_lstm_10_epochs.pth (torch, 761163 bytes, 19 tensors)

user_embedding.weight f4 [6041, 16]
000000 a5 3e 8e bf 75 26 1b bf f9 fb 02 bf ac 24 ea 3f
       -1.1112868 -0.60605556 -0.5116573 1.8292441
000010 9c 14 af 3f 92 a8 3d 3f 77 46 81 bf 5e 38 08 3f
       1.3678164 0.7408534 -1.0099629 0.5321101
000020 dc a3 11 3f 31 5c b8 bf 9c 5c 0e 3e ec d1 3c 3f
       0.56890655 -1.4403135 0.13902515 0.73757815
000030 12 a3 07 bf 26 f0 3a bf ee 62 ee 3e 0c 51 51 bf
       -0.529832 -0.7302269 0.46559852 -0.8176429
000040 53 36 e1 3f 98 8d 90 3d 6d 28 07 c0 45 70 b6 3e
       1.7594703 0.07058257 -2.1118424 0.3563253
000050 c7 60 0b bf 4a 3c 90 bf 1e 42 62 bf a4 31 5c be
       -0.54444546 -1.1268399 -0.88382137 -0.21503311
000060 b3 49 07 bf 23 c8 86 bf 3f 94 58 3f eb 49 60 3e
       -0.5284683 -1.0529827 0.84601206 0.21903197
000070 0a 82 8c 3f 39 b4 dc 3f d7 39 83 bf 23 ac 60 bf
       1.0977185 1.72425 -1.0252026 -0.8776266
000080 07 c3 e9 3e a8 5a a0 3f 53 83 30 bf d3 45 a1 be
       0.45656607 1.2527666 -0.68950385 -0.31498584
000090 3a a8 e7 3f 9f 43 08 be f0 81 48 be 84 12 2e bf
       1.8098214 -0.13307045 -0.19580817 -0.67997
0000a0 64 dd 27 bf 5a 5a a4 3f 08 b8 13 bf e9 ea 07 3f
       -0.6557219 1.2840073 -0.57702684 0.5309282
0000b0 8b be 64 3f 69 ea 16 40 4c 84 73 3d 54 29 75 bf
       0.89353245 2.3580573 0.05945234 -0.95766187
0000c0 bd 70 b9 bf 33 01 00 3f 9b e9 5e bf fa e7 f5 3e
       -1.448753 0.5000183 -0.87075204 0.48028547
0000d0 37 5f 47 be 7b 6c 39 bf 58 83 b5 bf 37 b8 07 3f
       -0.19469915 -0.72431153 -1.4180708 0.53015465
0000e0 6a 01 47 be cd 37 e4 3e 73 b6 87 3f 2e d9 5b 3f
       -0.19434133 0.44573823 1.0602554 0.85878265
0000f0 30 ba 81 be 57 da a6 3f b1 75 bf 3f 96 e1 48 3f
       -0.25337362 1.3035382 1.4957792 0.78469217
000100 36 ed 2e 3d 64 59 ce 3e e5 c1 14 bf 0a b7 c3 be
       0.04270669 0.40302575 -0.5810836 -0.38225585
000110 3f bf 52 be dc 2b ad bf 03 58 87 3f 8e 0a c9 be
       -0.20580767 -1.352901 1.0573734 -0.39265865
000120 cf f1 3b bf ef b8 6a 3f 68 fc 92 3f 81 68 9f 3e
       -0.73415846 0.91688436 1.1483278 0.31134418
000130 00 32 34 be c8 e3 6e bf e1 c1 78 bf 3e 0e 4b 3c
       -0.17597198 -0.93316317 -0.97170836 0.012393532
000140 19 22 40 3f 32 5a 07 be 66 2f 01 be 0c a7 9b be
       0.7505203 -0.13218 -0.12615737 -0.30400884
000150 dc f6 38 bf d4 74 93 3f 88 03 4f bf 5c c4 e9 3f
       -0.7225168 1.1520028 -0.80864763 1.8263049
000160 fb 52 bf 3f e4 9f 39 bf 7d 11 a1 3e 48 79 29 c0
       1.4947199 -0.725096 0.31458655 -2.6480274
000170 da 1f a5 be 9c 35 19 3f 49 3a 23 bf c2 50 44 40
       -0.32250863 0.59847426 -0.6376081 3.067429
000180 90 95 03 40 9b 43 e7 bd 82 f7 43 3e 7d 43 3a 3e
       2.0560036 -0.112921916 0.19137385 0.18189807
000190 7e e1 cc bf eb 16 a2 3f ee f6 1c bf b5 d8 57 3e
       -1.6006315 1.2663244 -0.61314285 0.21078761
0001a0 d8 52 94 be 09 25 0b 3f 10 3c 04 bf 69 07 55 bf
       -0.28969455 0.54353386 -0.5165415 -0.8321443
0001b0 16 62 4b bf 1c 13 05 3f 17 93 ef 3f 4d a6 7b 3f
       -0.7944654 0.51982284 1.8716763 0.9830063
0001c0 97 0c 16 bf be 82 98 3f c1 12 b6 bf 65 a4 29 3e
       -0.5861296 1.1914899 -1.4224473 0.16566618
0001d0 e9 f4 d5 bf 35 c8 6c 3f c1 a7 b4 bf f5 4c df bf
       -1.6715366 0.9249299 -1.4113694 -1.744536
0001e0 94 61 0c be e4 90 c4 3e ce c1 6f bf 68 53 b6 bf
       -0.13709098 0.38391793 -0.936551 -1.4244204
0001f0 f1 7d 2f 3f 28 bd ae 3e b5 0f b9 3f a4 4c 5b 3f
       0.68551546 0.3412869 1.4457918 0.8566382
000200 3b c7 87 3f 54 7c 1b 3f b0 08 1e bf de 3b 0a bf
       1.0607675 0.60736585 -0.61732006 -0.539976
000210 06 b9 66 be d1 74 60 be 51 d1 7f 3f 15 d9 ce 3f
       -0.22531518 -0.21919562 0.99928766 1.6159998
000220 72 18 2a 3f 42 a3 57 bd dc 9b 04 bf 40 53 d3 be
       0.6644355 -0.05264593 -0.5180032 -0.41274452
000230 20 14 0f bf e2 dc 5a be f8 f5 0c 3f 01 a2 12 bf
       -0.55890083 -0.21373323 0.5506282 -0.5727845
000240 c5 10 0b 3f b8 ca e3 be 61 6e 99 bf d4 09 da 3e
       0.54322463 -0.444906 -1.198681 0.42585623
000250 6e 3b 2f 3f 4b 8d 8a 3e 47 b3 db bd 97 58 51 3f
       0.6845006 0.27060923 -0.10727554 0.817758
000260 02 85 6c be 37 c1 b6 be 08 20 86 3e de bc d8 bd
       -0.23097613 -0.35694286 0.26196313 -0.105828986
000270 4f d1 84 3f e3 5f b8 3f 30 fd 22 3f 4d e1 8a 3e
       1.0376376 1.4404262 0.63667583 0.27125016
000280 08 e9 61 3e 0b 8a 9d 3f 2c 10 80 3f a4 29 0a 40
       0.2206155 1.2307752 1.0004935 2.1587915
000290 a5 76 c7 bd d4 84 1b bf f1 70 35 3f b8 58 2c bf
       -0.097394265 -0.60749555 0.7087546 -0.67322874
0002a0 5d e5 be bf fa e0 11 bf 40 93 90 3e 32 95 e8 be
       -1.4913746 -0.5698391 0.28237343 -0.45426327
0002b0 f8 49 a9 3e 5c c2 25 be 80 7b 11 3f ea 7f ed 3e
       0.33064246 -0.16187423 0.5682907 0.46386653
0002c0 21 c8 ab 3e 53 91 a2 be 0d ee af be d7 37 7a 3f
       0.33551124 -0.317515 -0.34361306 0.97741455
0002d0 4e 70 e7 be 41 e0 7b 3e 70 bd f2 3d 96 25 06 c0
       -0.4520287 0.24597265 0.118525386 -2.096044
0002e0 10 49 e8 bd d6 ea c1 3f 7e 9b 15 3f dd d4 0d 40
       -0.113420606 1.5149791 0.5844039 2.2161171
0002f0 56 db f8 3f 6f c2 4a 3e b4 1f e8 3f d7 76 d3 bd
       1.9441936 0.19800733 1.8134675 -0.10325401
000300 44 a5 01 be ad de 8f bf 78 bb 79 3f 0f b8 84 bf
       -0.126607 -1.123983 0.9755168 -1.036867
000310 d9 e9 00 c0 8f 9d 05 3f 14 d5 a4 3e a7 f9 49 bd
       -2.014273 0.5219354 0.32193816 -0.049310353
000320 14 d4 44 bf 07 9f a6 bd 10 f2 e8 bf ea 9d e8 3e
       -0.76886106 -0.08135801 -1.8198872 0.4543298
000330 d0 01 82 3f 11 f0 34 40 6b ba fc bf 79 b0 0a bf
       1.0156803 2.8271525 -1.974439 -0.54175526
000340 56 d1 b0 3e e4 e4 1a bf 14 60 53 3f 0e 27 4c 3f
       0.3453471 -0.6050551 0.8256848 0.7974709
000350 df 5d 4b bf 04 3e 3c bf 48 af 79 3e 9c 28 48 3f
       -0.7944011 -0.7353213 0.2438327 0.78186965
000360 db d4 7e bf 9d fa 42 3f ac 19 de 3d 9a b0 e5 be
       -0.9954354 0.76163656 0.1084474 -0.448613
000370 d7 dc 02 c0 11 6b 91 3d b3 a3 45 3e de ca c4 3f
       -2.044729 0.071004994 0.19300728 1.537441
000380 9a c8 8a be b7 67 e9 bd 12 e6 8e bf 70 70 dd be
       -0.27106172 -0.11396735 -1.1163962 -0.43249846
000390 4c 9e e1 3e 05 fb ca 3d 5d 78 e4 3f 72 51 b9 3f
       0.44066083 0.099111594 1.7849232 1.447798
0003a0 47 33 43 3c ab 25 d2 bf bf 2e 48 bf 94 76 93 bb
       0.011914081 -1.6417745 -0.7819633 -0.0045002196
0003b0 bf 1d 39 3f 82 88 94 bf e4 81 d2 3f e8 59 6d 3f
       0.72311014 -1.1604159 1.644589 0.9271531
0003c0 35 8d c6 3e 14 41 93 bf d9 03 4b bf c2 f0 69 bd
       0.38779607 -1.1504235 -0.79302746 -0.05711437
0003d0 7e f5 f6 3d 56 59 9e be 44 80 7e bc 0b 64 8b 3c
       0.12058543 -0.30927533 -0.015533511 0.017015478
0003e0 d5 57 ad bf 23 c2 b1 3e d4 c2 9e bc ee 81 80 bf
       -1.3542429 0.34718427 -0.01938001 -1.0039651
0003f0 d8 b0 f3 3f 43 4c 2b 40 88 1a 0a 3f 22 5d 5e be
       1.9038343 2.6765296 0.53946733 -0.21715215

movie_embedding.weight f4 [3953, 16]
000000 f4 47 22 bf 23 ff cf 3e 5b 1a 00 3f 0f 70 dd be
       -0.6339104 0.4062434 0.50040215 -0.43249556
000010 df 4f 29 bf 63 01 13 bd 34 35 61 bf a5 18 13 3f
       -0.661375 -0.035889994 -0.87971807 0.5745948
000020 bb 95 5a 3f ce 83 01 40 d9 31 40 bf f1 80 fb 3e
       0.8538472 2.0236697 -0.7507606 0.49121812
000030 db 86 48 bf ab 8a 0f bf 27 16 5d 3f 87 e1 14 bf
       -0.78330773 -0.56070966 0.86361927 -0.5815663
000040 06 c8 7a bf aa 20 1f 3e 7e fa 08 3f b4 ff 95 3f
       -0.9796146 0.15539804 0.5350722 1.1718659
000050 34 49 a2 ba ca 1f a9 3f 74 7d 52 be d6 ac 33 bf
       -0.0012381435 1.3212826 -0.20555669 -0.701856
000060 f4 b4 77 3e 1b 07 d0 3e c9 ef 03 3f ad c8 a2 3f
       0.24190122 0.4063042 0.5153776 1.2717491
000070 a2 15 ff bd 0f 0c bc be f3 d6 a8 be 3b a4 5a 3d
       -0.12455298 -0.3672795 -0.32976493 0.05337928
000080 f3 aa 11 3e 92 30 5c 3f 75 5a 83 3f 26 c8 77 3f
       0.14225368 0.8601161 1.026198 0.9678978
000090 53 61 87 bd 5d ae dc bf e6 0b 20 bf ab d4 95 3e
       -0.0661036 -1.7240711 -0.62518156 0.29263815
0000a0 0a 57 17 3f 88 ab 23 be ea 4d 43 bf 95 3c f2 be
       0.59117186 -0.15983403 -0.7629076 -0.47311845
0000b0 66 02 75 bf 15 5a c5 3e 23 49 3f 3d 87 76 cc 3f
       -0.95706785 0.3854529 0.046700608 1.5973672
0000c0 de 90 5a 3f 9d 1e 2f 3c 84 f2 9f 3f c7 b0 3a 3f
       0.853773 0.010688451 1.2495885 0.7292599
0000d0 5d 38 0e bf 02 d8 5b 3f e1 8d bd 3f 82 60 a9 3f
       -0.55554754 0.85876477 1.4808923 1.3232577
0000e0 ea dd 17 bf be b7 96 bd 24 97 00 3f 33 ce 87 3f
       -0.5932299 -0.07359265 0.5023062 1.0609802
0000f0 bc 24 ac 3e 8b 94 55 bf 7f 68 be be 98 5d f9 bf
       0.33621776 -0.83429784 -0.371891 -1.9481688
000100 36 5f 9b be 4b ff 33 bf 38 74 b3 bf 35 82 c8 3f
       -0.30346078 -0.7031142 -1.4019842 1.5664736
000110 5b 58 76 3e 3a 39 61 bf 6f be ed 3e 7e 29 ce be
       0.24057142 -0.87977946 0.46434352 -0.4026603
000120 70 fb 1b bf df de 99 3f 44 33 34 3f 43 66 51 3f
       -0.6093054 1.202114 0.70390725 0.81796664
000130 eb b7 f7 bd 12 68 93 be 37 ef 4f bf bf 30 6b be
       -0.120956264 -0.28790337 -0.8122439 -0.22967814
000140 d1 c2 11 40 82 1b a2 bf 8a ba 30 bf 41 a3 ce bd
       2.2775156 -1.2664645 -0.69034636 -0.10089732
000150 a5 08 85 bf 14 68 0c 3d 10 04 b5 bf 31 de 81 3f
       -1.0393263 0.034278944 -1.4141865 1.0145932
000160 e6 d4 b5 3e 95 45 7b bf 8f 41 dc be 8a 3a ac bf
       0.3551399 -0.9815305 -0.43018767 -1.3455365
000170 68 b2 90 be 7b 58 38 3f ab b5 40 bf b7 a1 9b bf
       -0.28261113 0.7201001 -0.75277203 -1.2158726
000180 50 ed 12 be a5 93 11 40 63 d3 b1 3e 82 35 87 3e
       -0.1434834 2.2746365 0.34731588 0.2640801
000190 70 fd 41 bf 30 0e d4 be 8c 3f e7 3e 1b bb cd 3e
       -0.7577734 -0.41417074 0.4516567 0.40181813
0001a0 60 43 4c bf fe 0e 03 3e 7e 3a 59 be 1d 66 f4 3e
       -0.79790306 0.12798688 -0.21213719 0.47734156
0001b0 65 34 df 3d 82 68 5a 3e e3 52 94 3f c1 19 b8 bf
       0.10898665 0.21328929 1.1587795 -1.438286
0001c0 75 86 74 be 27 87 b4 3e 3c 68 c4 bf 71 1c 19 c0
       -0.23879416 0.35259363 -1.534431 -2.392361
0001d0 86 7e 05 3d 06 8a 02 3f 90 ec 3d bc 51 41 d2 3f
       0.032591365 0.5099186 -0.011592045 1.6426183
0001e0 da f6 b3 3f b2 6f 0c 3f ac 43 2b 3f 4e 22 da 3e
       1.4059708 0.54857934 0.66900134 0.42604297
0001f0 0b e6 ac be 1d 91 11 c0 7b 25 14 c0 a2 c6 f4 3f
       -0.3376926 -2.274482 -2.3147876 1.9123118
000200 2b 90 b8 bf e6 cb f6 3f 0c db 99 be 39 d0 68 3f
       -1.4418997 1.9280975 -0.30049932 0.9094272
000210 21 4e a0 be 62 41 c1 3e 31 d4 08 bf f1 ab 43 be
       -0.31309608 0.37745196 -0.5344878 -0.19108559
000220 1e b7 29 bf 75 78 e0 bd c7 6b c1 be 0d 54 bf 3f
       -0.6629504 -0.10960475 -0.3777754 1.4947525
000230 b0 fb 7f 3f 26 05 a3 3b aa af 0c 3f 53 95 84 bf
       0.9999342 0.004974979 0.5495554 -1.035807
000240 be 07 3b be b4 10 3b 3f 69 df 56 3e 0e ba 57 bf
       -0.18264672 0.7307236 0.20983662 -0.8426827
000250 b7 75 44 be 45 67 01 be 5d e2 25 bd 42 a2 df 3d
       -0.1918553 -0.1263705 -0.04049908 0.1091962
000260 48 d0 d5 3d f4 47 f1 be 69 e2 8e 3f cb 23 0e bf
       0.10440117 -0.47125208 1.1162845 -0.55523366
000270 53 d3 b2 be e2 25 1f bf 54 83 fc 3f 65 b4 97 3d
       -0.34926853 -0.6216718 1.9727578 0.074074544
000280 33 4f a9 be a6 29 53 bf 54 7a 85 be 86 6b 03 bf
       -0.33068237 -0.82485425 -0.2606989 -0.5133594
000290 a4 76 0c 3f 74 11 76 3f 04 1b f2 bf d5 fb 69 3f
       0.5486853 0.9612038 -1.8914495 0.9139989
0002a0 10 d5 0a c0 46 8e 58 3f 6f b1 ff 3f 4c b2 56 bf
       -2.1692543 0.8459209 1.9976023 -0.8386581
0002b0 ef 74 11 40 ca 56 88 bf 03 b3 ae 3d 95 fd 4b 3f
       2.272762 -1.0651486 0.085302375 0.7968381
0002c0 ad f5 fd bd 5a 0d ed be 80 4b 4e bf fd 4c 2f bc
       -0.124003746 -0.4629925 -0.80583954 -0.010699508
0002d0 ef f7 d2 bd 5e 43 bd 3e 5e d2 8d bf 2b f8 9a bd
       -0.10301196 0.3696546 -1.1079824 -0.075668655
0002e0 ba 25 94 bf dc b5 4d bf 79 a1 a0 3e 9a 70 d5 3f
       -1.1574013 -0.8035562 0.31373194 1.6674988
0002f0 55 25 37 bf 17 d7 87 3f e1 55 88 bf 40 43 ee be
       -0.7154134 1.0612515 -1.0651208 -0.46535683
000300 4a 4f de 3f 15 8f 1c c0 a8 f6 05 40 96 4f 0a 3f
       1.7367947 -2.446233 2.0931797 0.5402769
000310 4a 5c 15 be 91 29 63 bf 5e ea c4 3f 4a 27 3b 3f
       -0.14585987 -0.887353 1.5384023 0.73106825
000320 2a 04 b9 bd 8e 85 c6 3e 92 60 6d 3e 06 28 7a 3e
       -0.09033997 0.3877377 0.2318137 0.2442933
000330 05 01 8f 3f 78 10 11 3f 5d e5 1f 3f e0 8b b1 bf
       1.1172186 0.56665754 0.62459356 -1.3870811
000340 87 8f 85 3f cc 66 d2 3e d1 78 72 bf 53 38 aa bf
       1.0434426 0.41094053 -0.947156 -1.3298439
000350 29 ce 98 be b4 61 79 be 43 08 8f 3b e9 68 73 3f
       -0.29844788 -0.24353677 0.0043649985 0.95081955
000360 18 06 cc 3f 3a 27 06 bd b6 18 5f be a7 c7 31 bf
       1.593936 -0.032752253 -0.2178677 -0.6944527
000370 41 bf 52 3f c3 f6 9b bf 2e 51 f8 bd ed 4c 58 3e
       0.8232308 -1.2184681 -0.12124859 0.21123095
000380 42 b3 47 bf ed ff d8 bf 5f aa b1 bf 95 ff 29 3f
       -0.780079 -1.6953102 -1.3880118 0.6640561
000390 76 79 f2 be 51 ff 16 c0 a7 2b 29 3f 7c 7d 90 bf
       -0.47358292 -2.3593333 0.66082233 -1.1288295
0003a0 55 f8 f6 3f 9e be a4 3f 24 8f 98 be 4e de 22 3e
       1.9294535 1.2870672 -0.29796708 0.15905115
0003b0 72 e9 27 3f 69 f3 6c bf 6b 7a b7 be 08 44 18 c0
       0.65590584 -0.92558914 -0.35835585 -2.3791523
0003c0 b6 26 60 3f c4 1a 88 bf 49 c8 8c 3f 36 22 25 bf
       0.8755907 -1.0633168 1.0998622 -0.64505327
0003d0 82 17 ac bf 59 c1 e6 be 23 e7 98 3e c6 f9 8e be
       -1.3444674 -0.45069388 0.29863843 -0.27924937
0003e0 d3 19 a2 be 69 12 e5 be 83 3b bc 3f 5e 55 a8 bf
       -0.31660327 -0.44740608 1.4705662 -1.3151052
0003f0 c5 34 90 3f cb af 11 c0 f8 34 ff 3e 2b e5 eb 3f
       1.1266104 -2.2763546 0.498451 1.8429312

genre_embedding.weight f4 [301, 16]
000000 d4 cf a0 bf 5e 75 4c 3f 0d 70 ad bf 1b 7d 8b 3e
       -1.2563424 0.7986659 -1.354982 0.27243885
000010 ec fb a0 bf 39 9e 2d c0 d5 38 a8 be 7f 62 8e bd
       -1.257688 -2.7127821 -0.3285586 -0.069523804
000020 3a 16 c4 3f 1e c9 84 bc 36 4a 07 bf 90 02 67 bf
       1.5319283 -0.016209181 -0.5284761 -0.90238285
000030 2d fc b9 3f d1 09 45 bf e3 a3 24 3f ff ea 54 bf
       1.4530083 -0.76968104 0.6431257 -0.83171076
000040 46 96 57 3e 77 96 c1 bf 0f 08 b2 3f 64 a1 d3 3f
       0.21053419 -1.5124043 1.3908709 1.6533628
000050 07 63 1b 3f 3e c4 6d bf f3 7b f3 3f 79 30 94 be
       0.6069798 -0.92877567 1.9022201 -0.28943232
000060 78 56 78 3f a2 3d fd bd d5 10 41 3f 38 22 0f be
       0.9700694 -0.12365271 0.7541631 -0.13977897
000070 c3 70 c5 3e 5b 79 7f bd c0 47 63 3e 57 85 9e be
       0.38562593 -0.062371593 0.22195339 -0.30961105
000080 c0 bb 32 bf ea 2e c2 bf 17 ee 36 bf ba 92 96 bf
       -0.69817734 -1.5170567 -0.71457046 -1.1763527
000090 39 c5 f4 be f4 a6 f9 3e db 2b c3 3f d2 6c 87 bf
       -0.4780672 0.48760188 1.5247759 -1.0580084
0000a0 3e dd 09 3f c7 19 04 3f 7a 3c d2 3f 03 07 b1 bf
       0.53853214 0.51601833 1.6424706 -1.3830265
0000b0 e8 fa d6 3f 4f 86 22 be b7 ea 9b 3f d0 e9 a5 3e
       1.679532 -0.15871547 1.2181004 0.32404947
0000c0 f3 80 6e bf 6c ae 17 3f d7 2a 13 bf 07 e7 8c 3f
       -0.9316551 0.5925052 -0.57487243 1.1008004
0000d0 de d1 85 3e bb 30 47 bf 1b 84 e1 3e bc aa a7 bf
       0.26136678 -0.7780873 0.440461 -1.3098979
0000e0 0c 48 4b bf 24 41 d3 bd 50 c3 c6 bf a1 c3 f3 3e
       -0.7940681 -0.10315159 -1.5528355 0.4761019
0000f0 9e 44 91 bf 96 df c5 bf c2 a6 42 bf c5 86 54 bf
       -1.1349065 -1.5458858 -0.760357 -0.8301814
000100 ce af 22 40 86 0f 7b 3f 53 9a 2e bf 4c 6e 8f be
       2.5419803 0.9807056 -0.6820423 -0.28013837
000110 d4 3a 6f be 66 53 23 bf 5b 92 e2 be 14 f6 28 bf
       -0.23362285 -0.6379913 -0.44252285 -0.66000485
000120 7c 03 a0 3f d5 59 da bf 22 fb e3 3e 02 b6 ab bf
       1.2501063 -1.7058665 0.44527537 -1.3414919
000130 eb fb 7c 3f e5 1d 87 3f 2e 29 8a bf b2 aa 8f 3f
       0.98821896 1.0555998 -1.0793817 1.1223967
000140 c7 6a 33 be cb 24 da 3f 1c a7 24 bf 73 df 01 3f
       -0.17521201 1.7042478 -0.6431749 0.5073158
000150 b2 32 9b be 03 42 d0 be 90 a7 2d 3f 5e 27 a1 3d
       -0.30312115 -0.40675363 0.67833805 0.07868837
000160 77 1a 61 3e d1 f9 8e be ec f6 70 3f 2d 26 a2 be
       0.21982752 -0.2792497 0.9412677 -0.3166975
000170 1e 32 9f 3f 1b 08 c4 bf 49 a3 27 be d7 5c af be
       1.243717 -1.5314974 -0.16370882 -0.3425052
000180 fa 29 06 3f c7 9d 04 c0 b7 8c 7f bf 11 c3 ac 3f
       0.524078 -2.07213 -0.9982409 1.349703
000190 79 ee 9f bf 31 2a b0 bd 92 a2 5d 3e ad 94 90 3e
       -1.2494651 -0.08601797 0.21644047 0.2823843
0001a0 9b 68 83 3e e9 c2 5c bf 5b 94 d5 3b 7e e3 ba bf
       0.25665745 -0.8623491 0.0065179295 -1.4600675
0001b0 c8 f2 99 3f 49 4d 25 3f 2a 98 a5 bf b1 c5 02 3f
       1.2027216 0.6457105 -1.2937062 0.51082903
0001c0 2f e0 2e bf 05 78 b1 3e 64 cd d0 3e b9 bc 04 3f
       -0.68310827 0.3466188 0.407817 0.5185047
0001d0 de 16 db be 71 60 5c 3f 2d 85 46 3f 37 3d 1e 3f
       -0.42790884 0.8608466 0.7754696 0.61812156
0001e0 51 e1 31 be 41 79 fe be 04 b4 fb be 57 06 14 bf
       -0.17371108 -0.49701884 -0.4916078 -0.57822174
0001f0 4e 51 16 40 fe 49 e7 be cd 06 d5 bb cb 45 2c 3f
       2.3487124 -0.4517364 -0.006501055 0.67293996
000200 c2 c8 33 bf b9 3f 09 3f 76 ef 5b 3f 55 b1 c6 be
       -0.7022821 0.5361286 0.85912263 -0.3880717
000210 64 2a 5f 3f 37 3c b5 bf 07 1f 58 3f 5f 75 27 3f
       0.8717406 -1.4159001 0.84422344 0.6541347
000220 e4 cb b2 bf fd bc 36 bf 4d 58 7c 3f 54 d2 cd 3e
       -1.3968472 -0.71382123 0.98572236 0.4019953
000230 7a 89 67 bf ce b3 e5 bf 57 03 62 3e 0b a9 00 3e
       -0.9044415 -1.7945497 0.22071587 0.12564485
000240 26 86 c0 3f c9 54 6b be 93 68 1b bf e0 db 37 3e
       1.5040939 -0.22981562 -0.6070644 0.1795497
000250 df 8a 6c be 81 9b b5 bf ce 93 0e 3f c9 32 33 bf
       -0.2309985 -1.4188081 0.5569428 -0.69999367
000260 80 1d 31 bf a0 94 8c be 3b 2d 0b bf b3 81 32 3e
       -0.6918564 -0.27457142 -0.5436589 0.17432289
000270 02 b8 16 be e3 16 70 be 88 70 a3 3f 1d 9b 43 3f
       -0.14718631 -0.2344623 1.2768717 0.7640856
000280 44 aa 05 be 58 c9 1e 40 f1 0b 90 3f d1 89 f6 3e
       -0.13053232 2.481039 1.1253644 0.4815202
000290 88 f9 9f 3f 00 b1 c3 bf 36 6b 44 bf 96 f8 f3 3d
       1.2498026 -1.5288391 -0.7672609 0.119126484
0002a0 02 e1 1b be 0e fb 07 40 16 03 05 40 ce 97 47 bf
       -0.15222552 2.1246982 2.0783134 -0.7796601
0002b0 b4 db a7 3f a9 62 bf bd 40 ef 80 3f 9b b0 85 bf
       1.3113923 -0.0934499 1.0073013 -1.0444521
0002c0 17 8e 83 bf bb 5e e5 be 01 85 bb be 30 4d 5f 3f
       -1.0277737 -0.44798836 -0.3662491 0.87227154
0002d0 71 c9 88 be 4c a0 b0 3e 8d b2 40 bf 92 14 06 3f
       -0.26716188 0.34497297 -0.75272447 0.5237514
0002e0 96 5c 18 bf 95 45 24 bf f2 ed c7 3e fa 3c d8 3f
       -0.59516275 -0.64168674 0.39048725 1.6893609
0002f0 70 92 89 bf 9e 9f 0e c0 78 69 3e bf 63 fd bd be
       -1.0747814 -2.2284923 -0.7437968 -0.3710738
000300 b1 c9 ac be 43 cd d3 bf 06 83 03 3f cc 0e 17 bf
       -0.33747628 -1.6547016 0.513718 -0.59006953
000310 97 af 8e be ed 62 2c bf 9e 99 28 bf 03 23 9c bf
       -0.2786834 -0.6733845 -0.658594 -1.2198185
000320 72 f8 95 3f ab df 00 bf 29 25 dd be a1 9f f7 bf
       1.1716444 -0.5034129 -0.43192413 -1.934559
000330 8b 5a 73 bf 00 e1 8e 3f 0a cf 93 be 07 2b 2e c0
       -0.9506003 1.1162415 -0.28868896 -2.7213762
000340 d4 37 df 3d 81 17 81 bf c7 0a e2 3c de 92 4b 3f
       0.1089932 -1.0085298 0.02759303 0.79520977
000350 b2 e2 c9 3f 2c b8 3b bf 7c 5f 53 3f 3a ef 3b bf
       1.5772307 -0.733279 0.8256757 -0.73411906
000360 39 e1 26 40 c7 52 37 3f 33 b7 46 bf 85 8d a6 3f
       2.6074965 0.71610683 -0.7762329 1.3011938
000370 bb 2e 29 3e fd d3 52 bf 0c 05 fe be b5 75 1d 3f
       0.16521733 -0.8235472 -0.49613225 0.6150773
000380 66 3a 4d bf ba 44 08 3f 2b 48 83 3e d3 dc 98 be
       -0.80167234 0.5322987 0.25640997 -0.29855976
000390 da ed eb 3e ea 6b c4 be 91 3f 00 3d 6f 1a 03 c0
       0.46079904 -0.38363582 0.03131062 -2.0484884
0003a0 14 61 4d 3d dd d0 05 bf 68 e7 55 bf e1 b8 98 bf
       0.05014141 -0.52271825 -0.8355622 -1.193142
0003b0 7b 69 47 bd 0c db ae 3f cb 43 8c bf ab 24 fe bf
       -0.04868458 1.3660598 -1.0958189 -1.985494
0003c0 f1 f1 43 3d ba e7 09 bf 98 3c ee be 70 95 90 3f
       0.047838155 -0.5386921 -0.46530604 1.1295605
0003d0 ca 33 0b 3f 4b c7 f6 bd b7 f0 1f be 19 1c 41 3f
       0.543759 -0.12049731 -0.15619169 0.754335
0003e0 2d 55 57 3f 10 d7 ec 3e 31 5d e0 bf d5 db 2f bd
       0.8411434 0.4625783 -1.752844 -0.042934258
0003f0 eb 34 44 3e 6b 81 3d 3f 97 10 13 bf 7d 64 40 bf
       0.19160812 0.740256 -0.5744719 -0.7515333

sex_embedding.weight f4 [2, 16]
000000 4c f9 8e 3f b1 a0 85 3e 97 41 83 bf 58 8c 70 3e
       1.1169829 0.2609916 -1.0254391 0.23491037
000010 32 46 f6 3e 3c 53 0a 3e 64 2b aa 3e 30 30 a5 3f
       0.4810043 0.13508314 0.3323623 1.2905331
000020 96 4f ca be 91 43 9d 3f 8e 4e c2 be a0 18 75 bd
       -0.39513844 1.2286245 -0.37950557 -0.059837937
000030 d2 10 30 bf 68 8f e2 be 5b 74 82 3e a4 70 5f bf
       -0.68775666 -0.44250035 0.25479397 -0.8728125
000040 bb 2c b5 bd 23 5d 5c be e0 f6 e3 3e ec e2 3a 3e
       -0.08846422 -0.21519904 0.44524288 0.18250626
000050 f7 57 95 bf 66 55 23 3f 52 c5 ab 3f af 54 22 bf
       -1.166747 0.6380218 1.3419592 -0.63410467
000060 36 0c e0 be 50 3d 5d 3f dd 29 33 3f b9 98 a2 3f
       -0.43759316 0.8642168 0.69985753 1.2702857
000070 b4 51 33 bf 86 9d ba bf c3 1e 23 bf 3f e8 fb be
       -0.70046544 -1.4579322 -0.63718814 -0.49200627

age_embedding.weight f4 [60, 16]
000000 85 63 9a bf aa d0 07 bf 58 e4 20 3f 28 40 27 bf
       -1.2061621 -0.5305277 0.62848425 -0.6533227
000010 2b b8 9a bf 4e e3 69 3f 04 e6 3d 3e ea 33 12 c0
       -1.2087454 0.91362464 0.18544775 -2.2844186
000020 5a 79 28 3d a9 12 bf 3f 84 2b 17 3f ee 94 1f 3f
       0.041131355 1.492757 0.59050775 0.62336624
000030 ff 80 69 3f 9f 9d 31 3f 2a 22 2c 3f fd 95 34 bf
       0.9121246 0.69381136 0.6723963 -0.70541364
000040 94 29 b5 3e fd fe b9 3e 59 72 f7 bf f1 23 f3 bf
       0.35383284 0.36327353 -1.9331771 -1.8995343
000050 e6 7e 11 3f ee 25 a6 be 11 9c cd bc 45 ae 93 bf
       0.56834257 -0.32450813 -0.025098832 -1.1537558
000060 58 a4 78 3f b5 67 04 3f e8 45 e9 be 89 e6 b4 3e
       0.9712577 0.51720744 -0.45561147 0.35332134
000070 88 5d 6b 3e 8b 89 88 bd f1 5d 18 3e ac a6 8e 3f
       0.22984898 -0.06666859 0.14879586 1.1144614
000080 ba 03 c8 be 99 78 06 be 67 f9 3b bf c5 4b 1c bf
       -0.39065343 -0.13131942 -0.7342743 -0.61053115
000090 44 11 62 3f ac 94 f2 3e 99 f5 07 bf 3e 93 7d bf
       0.88307595 0.47379053 -0.5310913 -0.990528
0000a0 19 dc 3b bf c3 15 85 3f d7 e4 bf 3f 5c e4 1d bf
       -0.7338272 1.0397266 1.4991711 -0.61676574
0000b0 0c 99 82 bd 82 db d6 3e 76 7f 16 c0 5c 42 02 3f
       -0.063768476 0.41964346 -2.3515296 0.50882506
0000c0 36 fb 0a bf 09 24 ae 3d 15 34 b1 bd 4c 68 c1 3f
       -0.5428957 0.08502967 -0.08652512 1.5109954
0000d0 45 a2 d8 be 6d 96 8b be 08 34 a4 3f 7b fa 28 3f
       -0.42311302 -0.27263203 1.2828379 0.660072
0000e0 a5 d4 00 3f 25 56 69 be 5c 93 5d bd 8e b3 a6 bc
       0.5032447 -0.22786768 -0.05409561 -0.02034929
0000f0 68 2e 60 3f 12 31 9f 3e 17 6c ea 3d 4b ae a2 bf
       0.8757081 0.31092125 0.11446398 -1.270944
000100 31 e7 6a bf fb 96 fe be 01 22 2f bf 17 19 69 3f
       -0.9175902 -0.49724564 -0.6841126 0.9105391
000110 d2 99 25 3c c7 f6 c8 3f b5 8d 76 3d 1d 3c 57 bf
       0.010107474 1.570031 0.060193736 -0.840761
000120 42 8d 2f 3d ca 77 53 bf 09 9d 88 bf 39 c6 9e be
       0.042859323 -0.8260466 -1.0672923 -0.31010607
000130 73 4a f2 bf 79 17 7c bc ea c5 47 be 23 bc 8d 3f
       -1.892897 -0.015386456 -0.19509092 1.107304
000140 64 4f c2 3f 76 b2 4f bf 01 54 ed 3e 95 f1 f3 bd
       1.5180478 -0.81131685 0.46353152 -0.119113125
000150 8e 14 47 3f 79 3f d2 3f 6a d4 f7 be 69 eb d4 bf
       0.7776574 1.642562 -0.48404247 -1.6634341
000160 4b d2 98 3f 95 7d ab bf e1 2e 16 3f 75 ce 4f 3f
       1.1939176 -1.33977 0.5866528 0.81174403
000170 d2 f1 d0 bf ec de 52 bd fd 89 4b 3f c4 79 f4 be
       -1.6323798 -0.051482126 0.7950743 -0.4774915
000180 b8 5e 9c 3f 07 c5 d8 bf b8 1c af 3f b7 f0 87 3f
       1.2216406 -1.6935128 1.3680639 1.0620335
000190 93 5e 90 3e e3 08 94 be 4f 25 66 3f 52 13 cf 3f
       0.28197154 -0.2891303 0.8990068 1.6177771
0001a0 9e 82 bd 3f cf d4 04 bf 72 3d ff 3f fc 90 96 3f
       1.4805486 -0.5188722 1.9940627 1.1762996
0001b0 21 d3 06 bf 51 83 83 3f dc 3d 26 bf 97 41 de bf
       -0.5266591 1.027445 -0.6493814 -1.7363766
0001c0 d7 84 20 3e a2 85 18 3f 81 58 83 3f a7 23 ed be
       0.15675674 0.5957891 1.0261384 -0.46316263
0001d0 29 ad 05 bf aa 14 d0 3f 62 d6 d2 3f 71 9d c2 3d
       -0.52217346 1.6256306 1.6471674 0.09502686
0001e0 71 c6 f1 3e b2 7f d1 be ee 32 8b be 8c d6 20 3f
       0.4722171 -0.40917736 -0.27187294 0.6282737
0001f0 53 66 b8 3d 94 a2 48 3f 9c ee 18 bf 75 b6 15 3d
       0.09003892 0.78373075 -0.5973909 0.036550958
000200 09 93 78 bf 93 9e 52 3c 73 40 b9 be 6f 4a 3e 3f
       -0.9709936 0.01285519 -0.36181983 0.74332327
000210 d9 fc f8 3e 84 df 85 be 45 68 5b bf 91 80 dd be
       0.48630407 -0.2614709 -0.8570598 -0.4326215
000220 c0 1d d7 3e 00 4d d2 3d 40 e8 c5 be 55 68 a4 bf
       0.42014885 0.10268593 -0.38653755 -1.284434
000230 cc 5d e9 be 74 b0 50 3e 46 b4 27 3f 20 c9 40 3f
       -0.45579374 0.20379812 0.6550945 0.7530689
000240 03 82 2a bf 8e 08 81 3e 83 82 7c 3f 02 2e 11 3d
       -0.6660463 0.2520184 0.98636645 0.035444267
000250 dc 64 78 3e 29 99 de 3f 7f e2 40 bd b6 00 fc be
       0.24257225 1.7390491 -0.047091004 -0.49219292
000260 ce 97 64 3f 38 8b 1e 3f aa 97 8c bf 5a f9 c3 3e
       0.89294136 0.6193118 -1.0983784 0.38276178
000270 e4 ea 55 bf 72 32 32 bf 19 23 59 bf 76 37 cc 3f
       -0.8356154 -0.69608223 -0.8481918 1.5954425
000280 6b 94 84 bd 5e 66 9c bf 5f ba 18 3f 8b 64 b8 3f
       -0.06473621 -1.221874 0.5965938 1.4405683
000290 e7 e1 b8 be b8 6d 8f 3e 70 ed 06 3e 48 de e6 bf
       -0.3610985 0.28013396 0.13176513 -1.8036585
0002a0 a9 25 51 3f 5e 37 e5 bc c6 a6 b7 3d 9e a2 aa 3f
       0.8169809 -0.027980503 0.089673564 1.3330877
0002b0 5d 96 38 bf 64 11 ec bf ee 4b 8a bf 1b 7d 0b bf
       -0.72104436 -1.8442807 -1.0804422 -0.5448777
0002c0 8d 66 d5 be 5a de 2c bf 1d 5a 60 be 4c 58 27 c0
       -0.41679803 -0.6752678 -0.21909375 -2.6147642
0002d0 02 6b f9 be fa b4 c4 be dd d2 d3 3e 7e 22 4a be
       -0.48714453 -0.38419324 0.41371813 -0.1973972
0002e0 2e bc b9 3f 83 8e 37 3f 77 49 49 3f e9 bc fd 3e
       1.4510553 0.7170183 0.78627723 0.4955819
0002f0 b4 37 b0 be 7f c7 72 3f 5d 78 61 bf 83 60 9c bf
       -0.34417498 0.94835657 -0.88074285 -1.2216953
000300 9b 8b 24 3f d5 5a 1c 3d 63 69 cb 3f 31 8e a6 be
       0.6427552 0.03817256 1.5891536 -0.32530358
000310 ff 32 b8 bf 7c 07 74 be 55 a1 1a 3f 22 75 77 3f
       -1.4390563 -0.2383098 0.60402423 0.96663105
000320 98 3a 66 3f 86 c5 2e 3f 0e 56 82 bf d2 c9 85 bf
       0.89933157 0.68270147 -1.0182512 -1.0452216
000330 e4 58 d1 be 64 37 d7 3e 59 60 fe bd a5 04 03 40
       -0.4088813 0.42034447 -0.124207206 2.0471585
000340 7f 2a 3e 3f 51 82 1d bf 6b 96 2b bf b7 27 2d bf
       0.74283594 -0.6152697 -0.67026395 -0.67638725
000350 96 af fb be 57 bd d1 3e a0 83 b1 3e ae c4 96 3f
       -0.491574 0.40964767 0.34670734 1.1778772
000360 d9 84 13 bf 1f 43 34 3f 08 54 8e bf 77 9b d5 be
       -0.57624584 0.7041492 -1.1119394 -0.41720173
000370 b6 71 60 3e 12 3b e2 bd 25 c3 c9 bf 2e 7a 1c bf
       0.21918377 -0.11046423 -1.5762678 -0.6112393
000380 02 89 c9 bd bc 8e 42 3d 01 2e 96 bf 3b ed 7d 3f
       -0.09840585 0.047499403 -1.1732789 0.9919011
000390 14 26 a4 3e ba 00 01 3f e4 b9 ee 3d 89 d3 34 3f
       0.320603 0.50391734 0.116565496 0.7063528
0003a0 d0 59 a3 3f 51 a9 2f 3f 9e 52 e8 3f ad f4 a5 bd
       1.2761784 0.6861773 1.8150213 -0.08103309
0003b0 56 c5 cb 3f fa 1f f8 3c f0 04 91 bf fb 81 44 bf
       1.5919597 0.030288685 -1.1329632 -0.76760834
0003c0 99 72 df 3f 72 b5 b8 3f a3 56 fe 3e 61 b5 9f bf
       1.7456847 1.4430373 0.49675474 -1.2477227
0003d0 47 43 bd 3f b7 42 92 be 1f ec 98 bf cc 2b 33 3f
       1.4786156 -0.28566524 -1.1947058 0.69988704
0003e0 d8 21 91 bf c9 bb 0c 3d 47 44 0d bf 21 41 7c 3f
       -1.1338453 0.034358773 -0.5518231 0.9853688
0003f0 60 61 4b bf 08 60 19 bf 2d 44 9f bf 8d 2c 93 3f
       -0.7944546 -0.5991216 -1.2442681 1.1497971

occupation_embedding.weight f4 [21, 16]
000000 98 9c 03 bf 44 8e 8a bf ee 02 f2 be a0 ba e7 bf
       -0.5141082 -1.0824666 -0.4726786 -1.8103828
000010 73 df e3 be 05 c4 66 3f a8 c2 bf 3e fb 15 b6 bf
       -0.44506416 0.9014285 0.37453198 -1.4225458
000020 b7 02 61 3f c5 6b 16 bf 29 19 31 3f e0 8b e9 3d
       0.8789477 -0.58758193 0.69179016 0.11403632
000030 26 e8 61 3f 7c 20 14 3f 0f 68 05 bf 40 46 57 3d
       0.88244855 0.5786207 -0.52111906 0.05255723
000040 af 42 fd be ae 48 17 3f 91 c1 35 3e 89 04 15 3e
       -0.49464938 0.59095275 0.17749621 0.14552511
000050 94 d9 02 bf 0e aa 31 c0 a8 e3 4a 3e 2c 1c 54 3f
       -0.5111325 -2.7760043 0.19813406 0.82855487
000060 49 a9 ab be 02 83 34 be 08 87 9b 3f bf e4 04 bf
       -0.33527592 -0.176281 1.2150583 -0.5191154
000070 05 a2 35 bf dd 38 aa bf ba 06 be 3f be f0 31 3f
       -0.7095035 -1.3298603 1.4845803 0.6950797
000080 a9 2b 82 bf 35 94 ec bd 99 5c 17 be 11 ed 9a bf
       -1.0169574 -0.11551706 -0.14781417 -1.2103597
000090 e2 d9 16 bf b5 09 a9 be 39 d5 fd bf 7f 53 47 3f
       -0.5892621 -0.33015218 -1.9830695 0.7786178
0000a0 56 62 81 bf e4 04 2b bf d2 43 df 3f 47 9c 16 3f
       -1.0108135 -0.6680434 1.7442572 0.5883221
0000b0 cc d6 d8 3e 7a f0 ff bf 9a 77 b8 bf 5d b2 c1 bf
       0.42351377 -1.9995263 -1.44115 -1.5132557
0000c0 78 7b 26 3f 81 c5 bc bf e9 c4 eb 3e 6a 6d 66 be
       0.6503215 -1.4747773 0.46048668 -0.22502676
0000d0 e5 a3 84 bf 5f f9 5e 3e be 17 74 bf d0 0b 8f 3e
       -1.0362517 0.21774815 -0.9534873 0.279387
0000e0 5e c7 55 3f 6e aa be be b8 23 d7 3e f1 0d 47 bf
       0.83507335 -0.37239403 0.4201944 -0.7775565
0000f0 89 e6 54 bf 76 c5 99 3f 25 2c f4 bd 6e 5d 0a 3d
       -0.8316427 1.2013385 -0.119224824 0.033780508
000100 bf 74 b3 3d a7 c6 be 3f 68 3c ca 3f 2d b1 aa be
       0.08762502 1.4904374 1.5799685 -0.333383
000110 5b 2e 0c 40 32 b2 ba 3f a0 ea aa 3f d7 e9 c8 3f
       2.1903293 1.4585631 1.3352852 1.5696362
000120 ed 1c 4d bc 33 aa ab 3f 1f 9c aa 3e a1 2b cd 3f
       -0.0125191035 1.3411316 0.33322236 1.602894
000130 46 01 48 3e e6 cd 40 3f ea 07 6b be 8b c2 79 3f
       0.19531736 0.75314176 -0.22952238 0.97562474
000140 2a 4c 32 3f 1f 13 2e 3f d8 da 0d bf a5 a9 16 be
       0.6964747 0.67997926 -0.55412054 -0.14713152
000150 69 9f b6 3f e6 6b 12 3f b4 4f 1c 3e 8a ba f3 3e
       1.4267398 0.5719589 0.1526478 0.47603256
000160 9c c8 10 be 22 b1 b4 3f c4 09 b3 be 7b 8c 0a 3e
       -0.14139026 1.4116557 -0.34968388 0.13530152
000170 9c 68 10 bf b1 5b 93 3f 29 69 32 3f 32 67 28 bf
       -0.5640962 1.1512357 0.6969171 -0.65782464
000180 3a fd 0c bf 19 4c 8c be 05 e4 d9 bd 00 c0 98 be
       -0.55073893 -0.27401808 -0.106391944 -0.29833984
000190 cc f0 3a 3f fe 7b c9 bf 0e a2 1a bf d6 e5 97 bd
       0.73023677 -1.5740964 -0.60403526 -0.074168846
0001a0 72 6a e1 3d f0 49 5f bf da a5 77 3f b7 f4 9e bf
       0.11006631 -0.87222195 0.96737444 -1.2418431
0001b0 b7 30 8b bf 6d de 84 3e 08 58 6c 3f 79 e5 c5 3f
       -1.0874242 0.25950947 0.92321825 1.5460654
0001c0 ce 4b 5a 3e 3e 35 3f be 34 a0 aa be 2a 97 74 bf
       0.2131798 -0.18672654 -0.3332535 -0.9554316
0001d0 d1 14 65 3e 84 64 85 3f a4 e9 43 bf db 73 7c bf
       0.22371222 1.04213 -0.7652838 -0.9861428
0001e0 57 84 96 be 2f 91 0a 3f 35 09 7e bf ec 3f 33 3e
       -0.29397842 0.5412778 -0.992328 0.17504853
0001f0 b3 88 53 3f 1f 66 ed be 29 cd 07 bf 4d ec 73 bc
       0.8263046 -0.46366975 -0.53047425 -0.014887881
000200 19 5e 85 be 9d 3a 58 be 19 d2 81 3d 43 ef 23 40
       -0.26048353 -0.21116109 0.06338901 2.5614784
000210 a2 f9 57 be 8b d9 72 3f 3f 25 19 3f bc 16 ea bf
       -0.21091321 0.94863194 0.5982246 -1.8288188
000220 a2 96 9d 3f 61 89 ad 3e 4c 8e 98 3f 71 85 b8 3f
       1.2311594 0.33893874 1.1918426 1.4415723
000230 7e 2d 3a 3f 9b c7 da 3f 6c 28 ad bf 57 aa 18 3f
       0.72725666 1.7092165 -1.3527961 0.5963492
000240 58 7a 49 bf 88 a9 4f bf bf 27 02 be 2f 0b f5 bc
       -0.78702307 -0.8111806 -0.12710474 -0.02991256
000250 f4 35 ad bd e0 c5 46 3d fb 05 c4 bf 39 4e dd bf
       -0.08457556 0.048528552 -1.5314325 -1.7289497
000260 ab e8 51 3e 47 67 7e 3f 74 36 35 be 3b f7 4d bf
       0.20498912 0.9937634 -0.17696553 -0.8045537
000270 84 0f bf bf f1 e4 00 bf 55 6d 0a bf 73 27 56 3e
       -1.492661 -0.50349337 -0.5407308 0.20913486
000280 5d 64 8d bf 0f a5 86 3f 32 11 cd 3f f5 58 d2 3b
       -1.1046253 1.0519122 1.6020873 0.006419296
000290 26 eb 33 3f 46 17 2a c0 ae 47 8e bf f8 ed e6 3e
       0.70280683 -2.6576705 -1.1115625 0.4510343
0002a0 6e 2a 04 3e 9b da 2b bf 5a d6 87 bf b2 b1 da 3f
       0.1290681 -0.6713044 -1.061229 1.7085478
0002b0 02 16 e2 3d f2 e9 8a 3f 91 3f 13 bf 98 1a 03 3f
       0.11039354 1.0852644 -0.5751887 0.51212454
0002c0 92 4b bf 3f 51 32 90 bf ef f1 d6 3f 70 c5 d4 be
       1.4944937 -1.1265355 1.6792582 -0.41556883
0002d0 4c 52 e2 3d 76 eb 52 bf 57 70 ec bf 74 f3 36 bf
       0.11050853 -0.82390535 -1.8471783 -0.7146523
0002e0 f2 dc 2d 3f 8c 4a 95 3f e4 29 5a be 16 19 2e 3f
       0.6791526 1.1663375 -0.21305043 0.6800703
0002f0 1f f4 50 bf 49 61 36 3f 72 69 44 bf b6 7f be be
       -0.816225 0.71242195 -0.76723397 -0.3720681
000300 9a b6 82 bf 78 75 62 be 04 67 1d 3e d6 e6 84 3f
       -1.0211976 -0.22115123 0.15371329 1.0382946
000310 94 f8 cc 3f 78 5e 56 bf 56 e5 0b 3f b2 42 68 3f
       1.601336 -0.837379 0.54646814 0.9072677
000320 a0 85 32 bf 55 73 15 3f 41 4f 5c be a6 24 1f 3f
       -0.69735146 0.5837911 -0.21514608 0.62165296
000330 fe 2a 5d bf 6d 90 3e 3f 7c f2 d4 be 3f 32 f3 3e
       -0.86393726 0.74439126 -0.4159125 0.47499272
000340 a0 72 6a 3e 56 57 d7 3d c2 1d 98 be db 77 14 bf
       0.22895288 0.10514705 -0.29710203 -0.57995385
000350 86 a1 87 3f 12 7c 3f 3f a7 8a ec 3d 1f b5 24 3f
       1.0596168 0.7479869 0.11549883 0.6433887
000360 ae f5 82 3d e3 30 a5 bf c2 6f 99 3e 0e cc 17 be
       0.06394516 -1.2905544 0.29968077 -0.14823934
000370 1a ad af 3d 5e 6c 9e bf 82 0b ba bd ba fb a0 bf
       0.085779384 -1.2376821 -0.09084226 -1.2576821
000380 6d df 79 3c e1 1c 21 be cb e5 5c 3f 77 58 69 3f
       0.015251023 -0.15733673 0.86288136 0.9115061
000390 71 12 8e bf db e7 b4 3f 5e 03 a4 3f f2 27 55 bf
       -1.1099378 1.4133257 1.2813528 -0.83264077
0003a0 4e d0 ab bf 5e 27 9e 3d 70 44 50 bf b7 1f 2a 3f
       -1.3422945 0.077223524 -0.8135443 0.66454643
0003b0 37 28 9d 3d 0b e7 16 3e 1f be f2 be 50 15 9b 3d
       0.07673686 0.14736573 -0.47410676 0.075724244
0003c0 d2 16 9b 3e cf fd c7 3f 30 82 3d 3f 3d c1 86 bf
       0.30290848 1.5624331 0.74026775 -1.0527722
0003d0 5b 9d f7 be b5 26 81 3f ad 8c 23 be f8 5b 22 bf
       -0.4836224 1.0089937 -0.15971632 -0.63421583
0003e0 2b b0 d9 3e 5e 8b 54 3f 7e 39 85 bf ec 16 89 3e
       0.42517218 0.8302516 -1.040817 0.267753
0003f0 3f 72 12 3f 50 be 38 3e d4 a2 d2 3c b9 d2 20 bf
       0.57205576 0.18041348 0.025712408 -0.6282154

lstm.weight_ih_l0 f4 [128, 16]
000000 de 50 9d bd 99 1a 6c 3e b1 20 25 3d 49 23 e0 bd
       -0.0768144 0.23057021 0.04031438 -0.1094423
000010 17 2a 79 be f0 61 53 3e 69 ce 9d 3d ca c8 33 be
       -0.24332462 0.20642829 0.07705385 -0.17557064
000020 ae 88 96 be ea 46 7b bc 57 11 0d bd a7 41 8f 3b
       -0.29401153 -0.015336731 -0.034440365 0.00437184
000030 0c 57 30 bc f2 15 96 3d b6 6d ed bc c3 45 eb 3d
       -0.010762941 0.073284045 -0.028982978 0.11487915
000040 15 86 14 be a2 97 97 be 35 9e ae bd 0a 4e 1a 3d
       -0.14504273 -0.29607874 -0.08526269 0.03767208
000050 b4 cf d1 3c d4 23 b5 3d b2 28 12 be 28 07 99 3e
       0.025611736 0.08844724 -0.14273337 0.29888272
000060 6a 0b 80 3e ec a1 20 bd f2 ba 99 bd b2 8d 62 3e
       0.25008708 -0.03921692 -0.0750636 0.22124365
000070 d9 96 2b bd 1b 77 c0 3b 92 5d 86 3e e9 28 ee 3c
       -0.041891906 0.0058735735 0.26243263 0.029072242
000080 12 6c 05 3e 82 4d 67 be 27 77 5e 3e f7 ab 18 bb
       0.13029507 -0.2258816 0.2172514 -0.0023295858
000090 6e 47 10 3e ee 02 a4 3d d6 6c 9d 3d 89 20 66 be
       0.14089748 0.08008371 0.076867744 -0.22473349
0000a0 64 6a 55 bd 10 7c 38 3e be e9 33 3e c1 f4 55 bd
       -0.052103415 0.18016076 0.17569634 -0.05223537
0000b0 ca 53 09 be e6 89 e8 3c cb 4f dc 3d 65 0a 5c be
       -0.13410869 0.028386068 0.10757407 -0.2148834
0000c0 df 44 57 be 83 82 28 3e 40 d4 76 3e c5 f1 50 be
       -0.21022366 0.16456036 0.24104404 -0.20404728
0000d0 db 79 db bd e0 0b d0 bd 94 5f a1 3d 67 17 18 be
       -0.107166015 -0.10158515 0.07879558 -0.14852677
0000e0 c0 2a 4e be 47 c5 b0 3c ae d4 a7 3d 3b 77 7a 3d
       -0.20133495 0.021578444 0.08194862 0.061148863
0000f0 29 16 32 be d8 89 bc 3d 67 4b 72 3d bb 60 05 bc
       -0.17391266 0.09205979 0.05915394 -0.008140738
000100 44 75 c7 3c c6 88 aa bb 85 33 8b 3d 84 a2 25 bd
       0.024347909 -0.005204293 0.06796936 -0.04043819
000110 41 c8 94 3d 6b 70 7f bd 8c b8 a5 3e 54 df be bc
       0.07264758 -0.06236307 0.3236736 -0.02329985
000120 7f 5c 93 3d 77 24 56 3e 04 ab 7e 3e fd f3 d2 bc
       0.071953766 0.20912348 0.24869925 -0.025751108
000130 6c e0 df bd ac 93 cd 3d e8 eb fe bd d1 2b 33 3e
       -0.10931477 0.10037932 -0.12447339 0.17497183
000140 b2 df 95 bd c6 21 b4 3d 80 93 23 3e 38 33 db 3d
       -0.07318057 0.08795504 0.15974236 0.107031286
000150 a0 09 56 bc ab 1d 98 3e f5 90 25 be 48 42 10 bd
       -0.013063818 0.29710135 -0.16168578 -0.03521946
000160 f1 e2 e4 3c 58 74 a6 be 1b c1 d0 3d 4b ad 5f be
       0.027940245 -0.32510638 0.10193082 -0.2184345
000170 c2 1c 53 be 77 9d 8f bb 79 83 c8 bd b6 06 c3 bd
       -0.20616439 -0.004382785 -0.097907014 -0.095227644
000180 15 de 14 3e 2b aa 68 be 6a ea ab 3c 19 4c 16 3e
       0.14537843 -0.22721164 0.0209858 0.14677466
000190 b3 02 75 3e f4 9c 15 be fe 43 83 bd f3 07 d2 3d
       0.23926811 -0.14610654 -0.06409453 0.102554224
0001a0 04 74 8c 3e 3f eb fd bc cc b1 5e be 4a e3 ef 3d
       0.27432263 -0.030995963 -0.21747512 0.11713274
0001b0 c0 c3 2d be dc 1e 5b be 20 d3 12 bd c9 27 58 bd
       -0.16969204 -0.2139849 -0.035845876 -0.052772317
0001c0 3e d4 2f 3e f7 d1 f8 bd 3a 5e 4f 3e 68 ba f3 bc
       0.17170808 -0.121494226 0.20250788 -0.029751971
0001d0 75 a6 76 3e 35 c3 65 bd 51 1d 0b 3d a8 da f9 3d
       0.24086936 -0.056094367 0.033963505 0.121999085
0001e0 f1 52 e0 bd 11 6d a6 bd b7 e9 14 be 22 ff b8 bd
       -0.1095332 -0.081262715 -0.1454228 -0.09033038
0001f0 47 f0 25 3e ef 5b dd be 70 b9 b3 3d 57 93 81 bd
       0.1620494 -0.43234202 0.08775604 -0.06326931
000200 77 99 ea 3d 85 38 b9 3e f4 12 e6 3b 28 25 00 3e
       0.11455052 0.36175933 0.0070213024 0.12514174
000210 fd d7 87 3d e3 f6 06 3e 80 49 24 be bb ac 13 be
       0.06632993 0.13180117 -0.16043663 -0.1442136
000220 16 a4 af bd 24 39 4d be c3 f0 0a 3d fd df a3 bd
       -0.08576219 -0.20041329 0.033921015 -0.08001707
000230 6e a7 d2 3d 8d 13 dc 3e 43 be 2a be 7d 3a 11 bd
       0.10285841 0.42983666 -0.16674142 -0.03545617
000240 08 df 77 be ae 0f 5c bc ea ec 88 be 7d 49 84 3e
       -0.24206173 -0.013431473 -0.2674325 0.25837317
000250 92 95 3e be a3 24 26 3e 03 8b 87 be b2 be 05 3e
       -0.18611744 0.16224913 -0.26473245 0.13061026
000260 b9 a7 5e be 4f 13 c2 3d 13 81 27 be 81 a9 0c 3d
       -0.21743669 0.09476339 -0.16357832 0.03434134
000270 4e c1 8f 3e a7 94 28 3e c0 21 c8 3b db 60 55 3e
       0.28077167 0.16462956 0.006107539 0.20837729
000280 cc 5c ca be 3e f9 b3 3d 36 f7 85 3d f7 84 8c bc
       -0.39523923 0.087877735 0.06541292 -0.017153246
000290 4b fd 10 be d5 51 ce 3c 19 0b fd bc 1f ee fa 3d
       -0.14159124 0.025185505 -0.03088908 0.12252449
0002a0 9c be 3d bd 02 4c 9a 3d 12 20 4d be 32 6a 1e 3d
       -0.046324357 0.075340286 -0.20031765 0.038675494
0002b0 06 48 26 be 2c 5f 77 bc c9 25 dc 3d be cf b3 bd
       -0.16238412 -0.015098374 0.107493944 -0.08779858
0002c0 5e 1f fd bc a1 9c 22 3e d5 51 db 3c 52 dd 75 be
       -0.030898746 0.15880062 0.026772419 -0.24010208
0002d0 b3 5e eb bc e5 18 f9 3d df f0 33 bd 57 1f 5f bd
       -0.02873168 0.121629514 -0.043930884 -0.054473247
0002e0 19 01 13 3b 83 eb 59 bb c9 3c 14 3e 9f 5c 7f 3d
       0.0022431074 -0.0033251948 0.14476313 0.06234419
0002f0 90 49 87 bd 36 73 11 be 2b 55 85 bd 65 27 eb bc
       -0.06605828 -0.14204106 -0.06510385 -0.028705308
000300 08 18 d8 bd 06 36 da bd 43 7b 97 3e bc 00 8b bd
       -0.105514586 -0.106548354 0.2958623 -0.067872494
000310 7d 03 57 bc 15 e1 0a bd 38 0c b4 3d e2 41 4d 3c
       -0.01312339 -0.03390606 0.08791393 0.012527915
000320 08 b4 9d bd 49 09 1c bd 2c 56 2b be 36 61 4e 3d
       -0.07700354 -0.038094793 -0.1673209 0.050385676
000330 3d 9b 0a 3c 36 48 21 3e e6 86 67 bd 3b f0 c9 bb
       0.008459863 0.15750203 -0.056525134 -0.006162671
000340 eb 90 14 3e 3d a9 06 3e 29 30 c5 bd f2 06 13 3e
       0.14508407 0.13150497 -0.096283264 0.14358118
000350 f5 f4 9e 3e 2f 5a 03 bd 2f 96 90 bd 6a 8e 28 3e
       0.31046262 -0.032068428 -0.07059895 0.16460577
000360 24 34 e9 3e 50 95 53 be 02 de fd 3c 63 66 98 3e
       0.45547593 -0.20662427 0.03098965 0.29765615
000370 b9 c8 b4 be c5 49 45 3c 0e b9 cf bd 08 a9 1d be
       -0.3530939 0.012041514 -0.10142718 -0.15396512
000380 df 71 d4 bd ed 8b 4e be 10 d4 3e bd 73 ac ea 3c
       -0.10373282 -0.20170565 -0.046588957 0.028646683
000390 56 e5 ae 3e b1 f8 22 3c cc b5 00 be 7f 15 91 be
       0.34159344 0.009946988 -0.1256935 -0.28336713
0003a0 ca 03 84 3d 7c c7 d5 bd f0 2d 44 3b 74 c2 f9 3d
       0.06446035 -0.10438439 0.0029934607 0.12195292
0003b0 41 be 8b bd 8a 34 90 3e 84 53 43 3e 6a ab da 3d
       -0.068233974 0.28165084 0.19074827 0.10677226
0003c0 47 95 40 be 6b c9 af be 8f 8c 81 3e 3c d4 52 3d
       -0.18806945 -0.34333357 0.2530255 0.051471934
0003d0 e0 51 fd 3d 7d 87 c5 3b a9 2f 30 be 9a 7e 5d be
       0.12369132 0.0060281144 -0.17205681 -0.21630326
0003e0 09 35 33 bd 4a 2e 53 3b 20 33 1a be db a9 cf bd
       -0.04375175 0.0032223635 -0.15058565 -0.10139819
0003f0 1e b3 c6 bd 30 29 8f 3c 48 04 b4 3d 53 c4 a1 be
       -0.09702133 0.017475694 0.08789879 -0.31595096

lstm.weight_hh_l0 f4 [128, 32]
000000 90 50 96 3d f9 ad e6 3d 3b 5e 98 3c 8c c1 39 bd
       0.07339585 0.112636514 0.01859962 -0.045350596
000010 90 66 34 3d 04 31 07 3e b7 b8 23 3d 40 de d0 bd
       0.044043124 0.13202292 0.03997108 -0.10198641
000020 4f fc 02 3e 16 16 4e 3d f8 eb df 3c fe c3 28 bb
       0.1279156 0.05031403 0.027334198 -0.0025751586
000030 7f 50 a9 bc fc ce 27 3e f2 55 21 3d 0c eb 0f be
       -0.020668266 0.16387552 0.039388604 -0.14054507
000040 a9 34 e8 bd 83 11 09 be e2 7e 10 3e 81 99 24 be
       -0.11338169 -0.13385586 0.14110902 -0.16074182
000050 36 b5 f4 3d c6 7d 95 bd b7 93 ec 3d 09 2e 17 3e
       0.11948626 -0.0729938 0.11551612 0.14763655
000060 38 51 af bd d3 bd bb 3b 05 57 f1 bd 2b 4c e5 bc
       -0.08560413 0.005729416 -0.11784176 -0.027990421
000070 00 b9 a4 bd 76 fe 73 bd 6b a1 92 bd e1 48 12 3e
       -0.080430984 -0.059568845 -0.07159694 0.14285614
000080 4a f0 1c 3b 0b 6e bb bd fd c0 6d 3b ee 17 40 bd
       0.0023946934 -0.091518484 0.003627836 -0.04689782
000090 7e 20 f0 3d dd fb 85 bd d4 73 f3 3d 21 07 ff 3d
       0.117249474 -0.0654218 0.11887327 0.124525316
0000a0 c3 b2 9a 3d c8 ab 82 3d 73 a9 07 be 67 c8 2b be
       0.07553627 0.06380421 -0.13248233 -0.16775666
0000b0 c2 2b 80 bc ce 8f 99 3d 29 c8 1d 3d 34 b5 82 3c
       -0.015645865 0.07498132 0.038520966 0.015955545
0000c0 0e 22 8f bd 7a 51 0f be f3 6f 25 bd a6 56 26 be
       -0.06988917 -0.13995925 -0.040389966 -0.16243991
0000d0 fe eb 7f ba e2 ef d5 3c ba 00 b2 bc 3a 3b 20 3c
       -0.00097626436 0.026115362 -0.021728862 0.009779746
0000e0 1a fd 70 3b 60 33 32 3d b5 52 c0 bd d9 dd 48 3d
       0.0036771954 0.043506026 -0.09390775 0.049039695
0000f0 0c 66 87 bd 1e 65 49 3d fe c6 df 3d 04 32 14 be
       -0.06611261 0.0491687 0.109266266 -0.14472204
000100 c1 0b 3c 3d 77 8c 1d 3d af 82 9b 3a fc f3 80 3c
       0.045909647 0.038464036 0.0011864508 0.01574134
000110 ad b9 0a be 58 83 24 3e 4a 70 93 bd c6 73 16 be
       -0.13547392 0.16065729 -0.07199152 -0.14692602
000120 38 83 26 3d 4d 32 24 3e a4 97 97 3d 77 8a d8 3a
       0.040652484 0.16034813 0.0740197 0.0016520758
000130 e6 ee 0c be 89 62 51 be c3 1f 62 bd 6a d8 fb 3c
       -0.13763008 -0.20447744 -0.05520607 0.030742843
000140 75 0e ec 3d 04 5d ee bd d7 39 5c 3d 70 a0 05 bb
       0.11526195 -0.11638835 0.053766098 -0.0020389818
000150 a3 33 91 bd af 10 e5 bd a6 61 36 be bc bc 3e be
       -0.07089927 -0.11184823 -0.17810687 -0.18626684
000160 f6 7f c6 bd 5a fe 90 bd 28 32 0a 3e 26 0a b9 bd
       -0.09692375 -0.07079764 0.13495696 -0.09035139
000170 01 18 a2 bc a2 6e 2b 3e 6c 06 9e bd 03 59 86 3b
       -0.019786837 0.16741422 -0.077160686 0.0040999665
000180 a7 ad 22 3c 48 20 6c 3d b2 7e ee bd ab 81 16 bd
       0.009929097 0.057647973 -0.11645259 -0.036744755
000190 b4 f8 07 be 25 9e 0c 3c f2 99 ab 3d 94 7f 18 be
       -0.13278466 0.0085826265 0.08378972 -0.14892417
0001a0 c2 38 b3 3c ee 2e 04 be 58 5f aa 3c 33 24 dc 3d
       0.02187765 -0.12908527 0.020797417 0.10749092
0001b0 55 74 60 bd 09 09 e1 3c 57 43 e2 3d 48 d0 4d bd
       -0.054798443 0.027470129 0.11048 -0.05024746
0001c0 92 a0 98 3d 41 72 c4 bd 3f 51 39 3e 31 60 f2 bd
       0.07452501 -0.09592105 0.18097399 -0.11834753
0001d0 bd af 93 3c 97 95 65 3d 59 47 11 be b4 91 36 bd
       0.018028134 0.056050863 -0.14187373 -0.044572547
0001e0 34 ed 49 be e6 01 8f bd 48 95 ac bd 1b 0f 8a bd
       -0.19719392 -0.06982784 -0.08426911 -0.067411624
0001f0 52 5b 00 bd 6f 95 c8 bd 9b ea 20 be a1 4a 66 3c
       -0.03133709 -0.09794127 -0.15714495 0.014055879
000200 f3 b6 24 3e 22 19 90 3d 7d ca 8c bd 17 a4 88 3d
       0.16085415 0.07036044 -0.06874559 0.06671923
000210 f7 89 54 3d 46 d3 19 be 7b 3c 13 be 9d 0e 9d bd
       0.051889386 -0.15022 -0.1437854 -0.07668803
000220 1a e0 ce 3c 74 1c c4 3c 8e d0 bc bd fd ae b0 3d
       0.025253344 0.023939349 -0.09219466 0.08627126
000230 50 c3 ad 3d 3a e9 1e bd 64 68 b9 3d 82 f0 2a 3e
       0.084845185 -0.03879664 0.09053114 0.16693309
000240 8f 3e 5a bc 0f 71 60 3d 24 b7 19 3e a2 42 92 bc
       -0.013320579 0.05479532 0.15011269 -0.017854039
000250 11 de 30 be 8b 24 18 3e f2 71 1c 3e 48 e1 5d bd
       -0.17272212 0.1485769 0.15277842 -0.054169923
000260 fe 42 d6 bc e8 cf 1b 3d 27 13 c4 3d c2 2f 25 3e
       -0.026154991 0.03804007 0.095739655 0.161315
000270 43 92 03 3e 91 24 a4 3d 59 e3 c7 bc 97 cb eb bd
       0.12848763 0.08014787 -0.0244004 -0.11513441
000280 02 1f 6f 3e 09 ea 81 bd 5a ae ce 3d 76 e4 13 3c
       0.23351672 -0.06343467 0.10091849 0.009026637
000290 0d 62 71 bd 90 7f 15 3e 45 b5 66 bd ff 58 fb bd
       -0.0589314 0.14599442 -0.056325216 -0.12272834
0002a0 b4 59 64 be a7 79 8f bd 06 ff 98 3c 0b e9 c9 bd
       -0.22299844 -0.07005625 0.018676292 -0.098589025
0002b0 cb 46 3a be fc 63 f1 bd d2 ce 08 be d3 46 18 3d
       -0.18191068 -0.11786649 -0.13360146 0.03717692
0002c0 04 66 c2 3d 64 55 0d 3e 1b 14 22 be 43 72 ad b8
       0.09492114 0.13802105 -0.15827982 -8.270566e-05
0002d0 e1 c0 9f 3d d5 b9 9f bc 8d 74 7e 3b ca db c6 bd
       0.078004606 -0.019497791 0.0038826794 -0.0970989
0002e0 1d 8f 0f 3e ac db ad 3d 0d 52 38 3e e3 82 c0 bd
       0.14019437 0.08489165 0.1800005 -0.09399965
0002f0 27 e8 ab bd bb f0 9b 3d a3 c3 43 bb c4 da 59 3d
       -0.08393889 0.07614275 -0.0029871247 0.053187147
000300 7d 8a e2 bc 6b 29 96 bb 4e a4 dd bd 08 45 30 be
       -0.027653927 -0.004582574 -0.10822354 -0.17213833
000310 4b 63 0b be b7 f8 fe bd 3e 5c b7 3b 87 28 fb bd
       -0.13612096 -0.12449782 0.005595713 -0.12263589
000320 d6 0d 99 3c 5f 2b 03 3e 6e 19 86 3c 26 52 1a be
       0.018683355 0.12809514 0.016369548 -0.150704
000330 35 7a c3 3d 47 1b c9 bd 0d 12 ab bd 33 51 88 bd
       0.095447935 -0.09819656 -0.08353052 -0.066561125
000340 fa 83 7f bd 95 f7 22 3e 31 1d 18 3e bd d2 d2 3d
       -0.062381722 0.15914758 0.14854886 0.102941014
000350 23 0a a6 bd 03 e4 f0 3d d6 f3 e1 bc 53 79 a9 bd
       -0.08107402 0.1176224 -0.02758209 -0.08275094
000360 f5 1c 73 bd c4 60 21 be 5d b1 fa 3d 7d 31 0d 3e
       -0.059353787 -0.1575957 0.122408606 0.1378841
000370 b2 cb 59 3b f2 19 15 be e7 09 9e 3d 42 32 2a 3d
       0.0033232984 -0.14560679 0.077167325 0.041551836
000380 89 fc 12 bb cc 9b 3a 3d 2a 32 ea bc d0 42 04 be
       -0.0022428355 0.045558736 -0.028588373 -0.12916112
000390 13 24 18 be cf 2f 25 3d 21 97 02 be 05 53 cb bd
       -0.14857511 0.040328797 -0.12752964 -0.09927944
0003a0 7e 4f ba 3d a2 c7 c5 bc bc 7a c5 3d f4 2a 17 3e
       0.09097193 -0.024143044 0.0964255 0.14762479
0003b0 73 ef 2c bc 46 17 1a 3d 84 9f f5 3d 04 8f 87 3c
       -0.010555136 0.03761985 0.11993316 0.016547687
0003c0 98 7c 27 3e 63 2e 51 3d 6b a3 a5 3d f3 c4 be bd
       0.16356122 0.05106963 0.0808781 -0.09314909
0003d0 85 58 12 be d5 f0 51 bd d5 6e dc bd f4 67 3f bd
       -0.1429158 -0.051255066 -0.10763327 -0.046729997
0003e0 35 c3 b9 3d 7a 48 17 be ba fd 1d 3d 79 ff b9 3d
       0.09070436 -0.14773741 0.03857205 0.09081931
0003f0 78 12 0e 3d 39 ac 87 3d 06 b9 db bc ef e1 5e bc
       0.034685582 0.06624646 -0.026821624 -0.013603671
